…
     ]
    }
   ],
   "source": [
    "cands = res_dict[\"gb_infl\"][\"deaf\"]\n",
    "print(cands)"
   ]
  },
  {
   "cell_type": "code",
   "execution_count": 330,
   "metadata": {},
   "outputs": [],
   "source": [
    "import torch\n",
    "from pytorch_pretrained_bert import BertTokenizer, BertModel, BertForMaskedLM"
   ]
  },
  {
   "cell_type": "code",
   "execution_count": 368,
   "metadata": {},
   "outputs": [
    {
     "data": {
      "text/plain": [
       "BertForMaskedLM(\n",
       "  (bert): BertModel(\n",
       "    (embeddings): BertEmbeddings(\n",
       "      (word_embeddings): Embedding(30522, 768, padding_idx=0)\n",
       "      (position_embeddings): Embedding(512, 768)\n",
       "      (token_type_embeddings): Embedding(2, 768)\n",
       "      (LayerNorm): BertLayerNorm()\n",
       "      (dropout): Dropout(p=0.1)\n",
       "    )\n",
       "    (encoder): BertEncoder(\n",
       "      (layer): ModuleList(\n",
       "        (0): BertLayer(\n",
       "          (attention): BertAttention(\n",
       "            (self): BertSelfAttention(\n",
       "              (query): Linear(in_features=768, out_features=768, bias=True)\n",
       "              (key): Linear(in_features=768, out_features=768, bias=True)\n",
       "              (value): Linear(in_features=768, out_features=768, bias=True)\n",
       "              (dropout): Dropout(p=0.1)\n",
       "            )\n",
       "            (output): BertSelfOutput(\n",
       "              (dense): Linear(in_features=768, out_features=768, bias=True)\n",
       "              (LayerNorm): BertLayerNorm()\n",
       "              (dropout): Dropout(p=0.1)\n",
       "            )\n",
       "          )\n",
       "          (intermediate): BertIntermediate(\n",
       "            (dense): Linear(in_features=768, out_features=3072, bias=True)\n",
       "          )\n",
       "          (output): BertOutput(\n",
       "            (dense): Linear(in_features=3072, out_features=768, bias=True)\n",
       "            (LayerNorm): BertLayerNorm()\n",
       "            (dropout): Dropout(p=0.1)\n",
       "          )\n",
       "        )\n",
       "        (1): BertLayer(\n",
       "          (attention): BertAttention(\n",
       "            (self): BertSelfAttention(\n",
       "              (query): Linear(in_features=768, out_features=768, bias=True)\n",
       "              (key): Linear(in_features=768, out_features=768, bias=True)\n",
       "              (value): Linear(in_features=768, out_features=768, bias=True)\n",
       "              (dropout): Dropout(p=0.1)\n",
       "            )\n",
       "            (output): BertSelfOutput(\n",
       "              (dense): Linear(in_features=768, out_features=768, bias=True)\n",
       "              (LayerNorm): BertLayerNorm()\n",
       "              (dropout): Dropout(p=0.1)\n",
       "            )\n",
       "          )\n",
       "          (intermediate): BertIntermediate(\n",
       "            (dense): Linear(in_features=768, out_features=3072, bias=True)\n",
       "          )\n",
       "          (output): BertOutput(\n",
       "            (dense): Linear(in_features=3072, out_features=768, bias=True)\n",
       "            (LayerNorm): BertLayerNorm()\n",
       "            (dropout): Dropout(p=0.1)\n",
       "          )\n",
       "        )\n",
       "        (2): BertLayer(\n",
       "          (attention): BertAttention(\n",
       "            (self): BertSelfAttention(\n",
       "              (query): Linear(in_features=768, out_features=768, bias=True)\n",
       "              (key): Linear(in_features=768, out_features=768, bias=True)\n",
       "              (value): Linear(in_features=768, out_features=768, bias=True)\n",
       "              (dropout): Dropout(p=0.1)\n",
       "            )\n",
       "            (output): BertSelfOutput(\n",
       "              (dense): Linear(in_features=768, out_features=768, bias=True)\n",
       "              (LayerNorm): BertLayerNorm()\n",
       "              (dropout): Dropout(p=0.1)\n",
       "            )\n",
       "          )\n",
       "          (intermediate): BertIntermediate(\n",
       "            (dense): Linear(in_features=768, out_features=3072, bias=True)\n",
       "          )\n",
       "          (output): BertOutput(\n",
       "            (dense): Linear(in_features=3072, out_features=768, bias=True)\n",
       "            (LayerNorm): BertLayerNorm()\n",
       "            (dropout): Dropout(p=0.1)\n",
       "          )\n",
       "        )\n",
       "        (3): BertLayer(\n",
       "          (attention): BertAttention(\n",
       "            (self): BertSelfAttention(\n",
       "              (query): Linear(in_features=768, out_features=768, bias=True)\n",
       "              (key): Linear(in_features=768, out_features=768, bias=True)\n",
       "              (value): Linear(in_features=768, out_features=768, bias=True)\n",
       "              (dropout): Dropout(p=0.1)\n",
       "            )\n",
       "            (output): BertSelfOutput(\n",
       "              (dense): Linear(in_features=768, out_features=768, bias=True)\n",
       "              (LayerNorm): BertLayerNorm()\n",
       "              (dropout): Dropout(p=0.1)\n",
       "            )\n",
       "          )\n",
       "          (intermediate): BertIntermediate(\n",
       "            (dense): Linear(in_features=768, out_features=3072, bias=True)\n",
       "          )\n",
       "          (output): BertOutput(\n",
       "            (dense): Linear(in_features=3072, out_features=768, bias=True)\n",
       "            (LayerNorm): BertLayerNorm()\n",
       "            (dropout): Dropout(p=0.1)\n",
       "          )\n",
       "        )\n",
       "        (4): BertLayer(\n",
       "          (attention): BertAttention(\n",
       "            (self): BertSelfAttention(\n",
       "              (query): Linear(in_features=768, out_features=768, bias=True)\n",
       "              (key): Linear(in_features=768, out_features=768, bias=True)\n",
       "              (value): Linear(in_features=768, out_features=768, bias=True)\n",
       "              (dropout): Dropout(p=0.1)\n",
       "            )\n",
       "            (output): BertSelfOutput(\n",
       "              (dense): Linear(in_features=768, out_features=768, bias=True)\n",
       "              (LayerNorm): BertLayerNorm()\n",
       "              (dropout): Dropout(p=0.1)\n",
       "            )\n",
       "          )\n",
       "          (intermediate): BertIntermediate(\n",
       "            (dense): Linear(in_features=768, out_features=3072, bias=True)\n",
       "          )\n",
       "          (output): BertOutput(\n",
       "            (dense): Linear(in_features=3072, out_features=768, bias=True)\n",
       "            (LayerNorm): BertLayerNorm()\n",
       "            (dropout): Dropout(p=0.1)\n",
       "          )\n",
       "        )\n",
       "        (5): BertLayer(\n",
       "          (attention): BertAttention(\n",
       "            (self): BertSelfAttention(\n",
       "              (query): Linear(in_features=768, out_features=768, bias=True)\n",
       "              (key): Linear(in_features=768, out_features=768, bias=True)\n",
       "              (value): Linear(in_features=768, out_features=768, bias=True)\n",
       "              (dropout): Dropout(p=0.1)\n",
       "            )\n",
       "            (output): BertSelfOutput(\n",
       "              (dense): Linear(in_features=768, out_features=768, bias=True)\n",
       "              (LayerNorm): BertLayerNorm()\n",
       "              (dropout): Dropout(p=0.1)\n",
       "            )\n",
       "          )\n",
       "          (intermediate): BertIntermediate(\n",
       "            (dense): Linear(in_features=768, out_features=3072, bias=True)\n",
       "          )\n",
       "          (output): BertOutput(\n",
       "            (dense): Linear(in_features=3072, out_features=768, bias=True)\n",
       "            (LayerNorm): BertLayerNorm()\n",
       "            (dropout): Dropout(p=0.1)\n",
       "          )\n",
       "        )\n",
       "        (6): BertLayer(\n",
       "          (attention): BertAttention(\n",
       "            (self): BertSelfAttention(\n",
       "              (query): Linear(in_features=768, out_features=768, bias=True)\n",
       "              (key): Linear(in_features=768, out_features=768, bias=True)\n",
       "              (value): Linear(in_features=768, out_features=768, bias=True)\n",
       "              (dropout): Dropout(p=0.1)\n",
       "            )\n",
       "            (output): BertSelfOutput(\n",
       "              (dense): Linear(in_features=768, out_features=768, bias=True)\n",
       "              (LayerNorm): BertLayerNorm()\n",
       "              (dropout): Dropout(p=0.1)\n",
       "            )\n",
       "          )\n",
       "          (intermediate): BertIntermediate(\n",
       "            (dense): Linear(in_features=768, out_features=3072, bias=True)\n",
       "          )\n",
       "          (output): BertOutput(\n",
       "            (dense): Linear(in_features=3072, out_features=768, bias=True)\n",
       "            (LayerNorm): BertLayerNorm()\n",
       "            (dropout): Dropout(p=0.1)\n",
       "          )\n",
       "        )\n",
       "        (7): BertLayer(\n",
       "          (attention): BertAttention(\n",
       "            (self): BertSelfAttention(\n",
       "              (query): Linear(in_features=768, out_features=768, bias=True)\n",
       "              (key): Linear(in_features=768, out_features=768, bias=True)\n",
       "              (value): Linear(in_features=768, out_features=768, bias=True)\n",
       "              (dropout): Dropout(p=0.1)\n",
       "            )\n",
       "            (output): BertSelfOutput(\n",
       "              (dense): Linear(in_features=768, out_features=768, bias=True)\n",
       "              (LayerNorm): BertLayerNorm()\n",
       "              (dropout): Dropout(p=0.1)\n",
       "            )\n",
       "          )\n",
       "          (intermediate): BertIntermediate(\n",
       "            (dense): Linear(in_features=768, out_features=3072, bias=True)\n",
       "          )\n",
       "          (output): BertOutput(\n",
       "            (dense): Linear(in_features=3072, out_features=768, bias=True)\n",
       "            (LayerNorm): BertLayerNorm()\n",
       "            (dropout): Dropout(p=0.1)\n",
       "          )\n",
       "        )\n",
       "        (8): BertLayer(\n",
       "          (attention): BertAttention(\n",
       "            (self): BertSelfAttention(\n",
       "              (query): Linear(in_features=768, out_features=768, bias=True)\n",
       "              (key): Linear(in_features=768, out_features=768, bias=True)\n",
       "              (value): Linear(in_features=768, out_features=768, bias=True)\n",
       "              (dropout): Dropout(p=0.1)\n",
       "            )\n",
       "            (output): BertSelfOutput(\n",
       "              (dense): Linear(in_features=768, out_features=768, bias=True)\n",
       "              (LayerNorm): BertLayerNorm()\n",
       "              (dropout): Dropout(p=0.1)\n",
       "            )\n",
       "          )\n",
       "          (intermediate): BertIntermediate(\n",
       "            (dense): Linear(in_features=768, out_features=3072, bias=True)\n",
       "          )\n",
       "          (output): BertOutput(\n",
       "            (dense): Linear(in_features=3072, out_features=768, bias=True)\n",
       "            (LayerNorm): BertLayerNorm()\n",
       "            (dropout): Dropout(p=0.1)\n",
       "          )\n",
       "        )\n",
       "        (9): BertLayer(\n",
       "          (attention): BertAttention(\n",
       "            (self): BertSelfAttention(\n",
       "              (query): Linear(in_features=768, out_features=768, bias=True)\n",
       "              (key): Linear(in_features=768, out_features=768, bias=True)\n",
       "              (value): Linear(in_features=768, out_features=768, bias=True)\n",
       "              (dropout): Dropout(p=0.1)\n",
       "            )\n",
       "            (output): BertSelfOutput(\n",
       "              (dense): Linear(in_features=768, out_features=768, bias=True)\n",
       "              (LayerNorm): BertLayerNorm()\n",
       "              (dropout): Dropout(p=0.1)\n",
       "            )\n",
       "          )\n",
       "          (intermediate): BertIntermediate(\n",
       "            (dense): Linear(in_features=768, out_features=3072, bias=True)\n",
       "          )\n",
       "          (output): BertOutput(\n",
       "            (dense): Linear(in_features=3072, out_features=768, bias=True)\n",
       "            (LayerNorm): BertLayerNorm()\n",
       "            (dropout): Dropout(p=0.1)\n",
       "          )\n",
       "        )\n",
       "        (10): BertLayer(\n",
       "          (attention): BertAttention(\n",
       "            (self): BertSelfAttention(\n",
       "              (query): Linear(in_features=768, out_features=768, bias=True)\n",
       "              (key): Linear(in_features=768, out_features=768, bias=True)\n",
       "              (value): Linear(in_features=768, out_features=768, bias=True)\n",
       "              (dropout): Dropout(p=0.1)\n",
       "            )\n",
       "            (output): BertSelfOutput(\n",
       "              (dense): Linear(in_features=768, out_features=768, bias=True)\n",
       "              (LayerNorm): BertLayerNorm()\n",
       "              (dropout): Dropout(p=0.1)\n",
       "            )\n",
       "          )\n",
       "          (intermediate): BertIntermediate(\n",
       "            (dense): Linear(in_features=768, out_features=3072, bias=True)\n",
       "          )\n",
       "          (output): BertOutput(\n",
       "            (dense): Linear(in_features=3072, out_features=768, bias=True)\n",
       "            (LayerNorm): BertLayerNorm()\n",
       "            (dropout): Dropout(p=0.1)\n",
       "          )\n",
       "        )\n",
       "        (11): BertLayer(\n",
       "          (attention): BertAttention(\n",
       "            (self): BertSelfAttention(\n",
       "              (query): Linear(in_features=768, out_features=768, bias=True)\n",
       "              (key): Linear(in_features=768, out_features=768, bias=True)\n",
       "              (value): Linear(in_features=768, out_features=768, bias=True)\n",
       "              (dropout): Dropout(p=0.1)\n",
       "            )\n",
       "            (output): BertSelfOutput(\n",
       "              (dense): Linear(in_features=768, out_features=768, bias=True)\n",
       "              (LayerNorm): BertLayerNorm()\n",
       "              (dropout): Dropout(p=0.1)\n",
       "            )\n",
       "          )\n",
       "          (intermediate): BertIntermediate(\n",
       "            (dense): Linear(in_features=768, out_features=3072, bias=True)\n",
       "          )\n",
       "          (output): BertOutput(\n",
       "            (dense): Linear(in_features=3072, out_features=768, bias=True)\n",
       "            (LayerNorm): BertLayerNorm()\n",
       "            (dropout): Dropout(p=0.1)\n",
       "          )\n",
       "        )\n",
       "      )\n",
       "    )\n",
       "    (pooler): BertPooler(\n",
       "      (dense): Linear(in_features=768, out_features=768, bias=True)\n",
       "      (activation): Tanh()\n",
       "    )\n",
       "  )\n",
       "  (cls): BertOnlyMLMHead(\n",
       "    (predictions): BertLMPredictionHead(\n",
       "      (transform): BertPredictionHeadTransform(\n",
       "        (dense): Linear(in_features=768, out_features=768, bias=True)\n",
       "        (LayerNorm): BertLayerNorm()\n",
       "      )\n",
       "      (decoder): Linear(in_features=768, out_features=30522, bias=False)\n",
       "    )\n",
       "  )\n",
       ")"
      ]
     },
     "execution_count": 368,
     "metadata": {},
     "output_type": "execute_result"
    }
   ],
   "source": [
    "modelpath = \"bert-base-uncased\"\n",
    "tokenizer = BertTokenizer.from_pretrained(modelpath)\n",
    "# Convert inputs to PyTorch tensors\n",
    "\n",
    "# Load pre-trained model (weights)\n",
…
